Layer (type)                    Output Shape         Param #     Connected to                                                                                                                              [0/1054]
==================================================================================================
input_1 (InputLayer)            (None, 64)           0                                           
__________________________________________________________________________________________________
embedding_2 (Embedding)         (None, 64, 16)       80          input_1[0][0]                    
__________________________________________________________________________________________________
bidirectional_1 (Bidirectional) (None, 64, 64)       8064        embedding_1[0][0]                
__________________________________________________________________________________________________
bidirectional_3 (Bidirectional) (None, 64, 256)      112128      embedding_2[0][0]                
__________________________________________________________________________________________________
bidirectional_2 (Bidirectional) (None, 64, 64)       18816       bidirectional_1[0][0]            
__________________________________________________________________________________________________
bidirectional_4 (Bidirectional) (None, 64, 128)      123648      bidirectional_3[0][0]            
__________________________________________________________________________________________________
lambda_1 (Lambda)               (None, 4, 64)        0           bidirectional_2[0][0]            
__________________________________________________________________________________________________
flatten_2 (Flatten)             (None, 8192)         0           bidirectional_4[0][0]            
__________________________________________________________________________________________________
flatten_1 (Flatten)             (None, 256)          0           lambda_1[0][0]                   
__________________________________________________________________________________________________
concatenate_1 (Concatenate)     (None, 8448)         0           flatten_2[0][0]                  
                                                                 flatten_1[0][0]                  
__________________________________________________________________________________________________
dense_1 (Dense)                 (None, 16)           4112        flatten_1[0][0]                  
__________________________________________________________________________________________________
dense_6 (Dense)                 (None, 1024)         8651776     concatenate_1[0][0]              
__________________________________________________________________________________________________
dense_4 (Dense)                 (None, 5)            85          dense_1[0][0]                    
__________________________________________________________________________________________________
dense_5 (Dense)                 (None, 5)            1285        flatten_1[0][0]                  
__________________________________________________________________________________________________
dense_7 (Dense)                 (None, 5)            42245       concatenate_1[0][0]              
__________________________________________________________________________________________________
dense_8 (Dense)                 (None, 5)            5125        dense_6[0][0]                    
__________________________________________________________________________________________________
logits-new (Add)                (None, 5)            0           dense_4[0][0]                    
                                                                 dense_5[0][0]                    
__________________________________________________________________________________________________
add_1 (Add)                     (None, 5)            0           dense_7[0][0]                    
                                                                 dense_8[0][0]                    
                                                                 logits-new[0][0]                 
__________________________________________________________________________________________________
dense_9 (Dense)                 (None, 5)            30          add_1[0][0]                      
__________________________________________________________________________________________________
1 (Activation)                  (None, 5)            0           dense_9[0][0]                    
==================================================================================================
Total params: 8,967,434
Trainable params: 8,967,434
Non-trainable params: 0
__________________________________________________________________________________________________
Training Complete Batch 1562499/1562499 Loss = 1.692664 
